{
  "parameter_count": 29662647,
  "model_architecture": "Network(\n  (backbone): Sequential(\n    (0): Conv2d(3, 64, kernel_size=(7, 7), stride=(2, 2), padding=(3, 3))\n    (1): BatchNorm2d(64, eps=1e-05, momentum=0.1, affine=True, track_running_stats=True)\n    (2): ReLU(inplace=True)\n    (3): MaxPool2d(kernel_size=3, stride=2, padding=1, dilation=1, ceil_mode=False)\n    (4): Conv2d(64, 128, kernel_size=(3, 3), stride=(2, 2), padding=(1, 1))\n    (5): BatchNorm2d(128, eps=1e-05, momentum=0.1, affine=True, track_running_stats=True)\n    (6): ReLU(inplace=True)\n    (7): Conv2d(128, 256, kernel_size=(3, 3), stride=(2, 2), padding=(1, 1))\n    (8): BatchNorm2d(256, eps=1e-05, momentum=0.1, affine=True, track_running_stats=True)\n    (9): ReLU(inplace=True)\n    (10): Conv2d(256, 512, kernel_size=(3, 3), stride=(2, 2), padding=(1, 1))\n    (11): BatchNorm2d(512, eps=1e-05, momentum=0.1, affine=True, track_running_stats=True)\n    (12): ReLU(inplace=True)\n    (13): Conv2d(512, 3072, kernel_size=(1, 1), stride=(1, 1), bias=False)\n    (14): BatchNorm2d(3072, eps=1e-05, momentum=0.1, affine=True, track_running_stats=True)\n    (15): ReLU(inplace=True)\n    (16): AdaptiveAvgPool2d(output_size=(1, 1))\n    (17): Flatten(start_dim=1, end_dim=-1)\n  )\n  (cls_layer): Linear(in_features=3072, out_features=8631, bias=True)\n)"
}