{
  "parameter_count": 19978794,
  "model_architecture": "Network(\n  (model): Sequential(\n    (0): Linear(in_features=1988, out_features=2048, bias=True)\n    (1): BatchNorm1d(2048, eps=1e-05, momentum=0.1, affine=True, track_running_stats=True)\n    (2): GELU(approximate='none')\n    (3): Dropout(p=0.2, inplace=False)\n    (4): Linear(in_features=2048, out_features=2048, bias=True)\n    (5): BatchNorm1d(2048, eps=1e-05, momentum=0.1, affine=True, track_running_stats=True)\n    (6): GELU(approximate='none')\n    (7): Dropout(p=0.2, inplace=False)\n    (8): Linear(in_features=2048, out_features=2048, bias=True)\n    (9): BatchNorm1d(2048, eps=1e-05, momentum=0.1, affine=True, track_running_stats=True)\n    (10): SiLU()\n    (11): Dropout(p=0.2, inplace=False)\n    (12): Linear(in_features=2048, out_features=1536, bias=True)\n    (13): BatchNorm1d(1536, eps=1e-05, momentum=0.1, affine=True, track_running_stats=True)\n    (14): SiLU()\n    (15): Dropout(p=0.2, inplace=False)\n    (16): Linear(in_features=1536, out_features=1024, bias=True)\n    (17): BatchNorm1d(1024, eps=1e-05, momentum=0.1, affine=True, track_running_stats=True)\n    (18): GELU(approximate='none')\n    (19): Dropout(p=0.2, inplace=False)\n    (20): Linear(in_features=1024, out_features=1024, bias=True)\n    (21): BatchNorm1d(1024, eps=1e-05, momentum=0.1, affine=True, track_running_stats=True)\n    (22): GELU(approximate='none')\n    (23): Dropout(p=0.2, inplace=False)\n    (24): Linear(in_features=1024, out_features=768, bias=True)\n    (25): BatchNorm1d(768, eps=1e-05, momentum=0.1, affine=True, track_running_stats=True)\n    (26): GELU(approximate='none')\n    (27): Dropout(p=0.2, inplace=False)\n    (28): Linear(in_features=768, out_features=512, bias=True)\n    (29): BatchNorm1d(512, eps=1e-05, momentum=0.1, affine=True, track_running_stats=True)\n    (30): ReLU()\n    (31): Dropout(p=0.2, inplace=False)\n    (32): Linear(in_features=512, out_features=512, bias=True)\n    (33): BatchNorm1d(512, eps=1e-05, momentum=0.1, affine=True, track_running_stats=True)\n    (34): ReLU()\n    (35): Dropout(p=0.2, inplace=False)\n    (36): Linear(in_features=512, out_features=256, bias=True)\n    (37): BatchNorm1d(256, eps=1e-05, momentum=0.1, affine=True, track_running_stats=True)\n    (38): ReLU()\n    (39): Dropout(p=0.2, inplace=False)\n    (40): Linear(in_features=256, out_features=256, bias=True)\n    (41): BatchNorm1d(256, eps=1e-05, momentum=0.1, affine=True, track_running_stats=True)\n    (42): ReLU()\n    (43): Dropout(p=0.2, inplace=False)\n    (44): Linear(in_features=256, out_features=256, bias=True)\n    (45): BatchNorm1d(256, eps=1e-05, momentum=0.1, affine=True, track_running_stats=True)\n    (46): ReLU()\n    (47): Dropout(p=0.2, inplace=False)\n    (48): Linear(in_features=256, out_features=42, bias=True)\n  )\n)"
}